Deep Bind Implementation/deeppromoter_dna_model.pth (torch, 160660 bytes, 6 tensors)

embedding.weight f4 [5, 16]
0	0x00000000	0.0
1	0x00000000	0.0
2	0x00000000	0.0
3	0x00000000	0.0
4	0x00000000	0.0
5	0x00000000	0.0
6	0x00000000	0.0
7	0x00000000	0.0
8	0x00000000	0.0
9	0x00000000	0.0
10	0x00000000	0.0
11	0x00000000	0.0
12	0x00000000	0.0
13	0x00000000	0.0
14	0x00000000	0.0
15	0x00000000	0.0
16	0xbe236029	-0.15954651
17	0x3f894211	1.0723287
18	0x400b1818	2.1733456
19	0xbf9abf5b	-1.2089647
20	0x3ea46d48	0.32114625
21	0x3fc50cf6	1.539458
22	0xbfc374b9	-1.5269996
23	0x3ea47438	0.32119918
24	0x3fb91f73	1.4462723
25	0x3ed3765b	0.41301236
26	0xbf07f0cb	-0.53101796
27	0xbf985863	-1.1901973
28	0xbf1d8e4f	-0.6154527
29	0xbecaf0b8	-0.3963678
30	0xbe77cec7	-0.24199973
31	0xbf58e41c	-0.8472307
32	0xc0073de9	-2.1131537
33	0xbebce60e	-0.36894268
34	0x3f072571	0.52791506
35	0x3c16cfc1	0.009204806
36	0xbf2a15c7	-0.6643948
37	0x3fd37d2a	1.6522572
38	0x3e25d237	0.16193472
39	0xbf48a9ba	-0.7838398
40	0xc00eb944	-2.2300577
41	0xbf221cc6	-0.63325155
42	0xbf7adabc	-0.9799001
43	0x3ed3885e	0.41314977
44	0xbef2cddf	-0.47422692
45	0x3e8dfaa1	0.27730277
46	0x3fc289fe	1.5198362
47	0x4014b8a1	2.3237689
48	0x3f7a1365	0.97685844
49	0x3e5434d5	0.20723279
50	0xbea58f14	-0.32335722
51	0xbfd75978	-1.6824179
52	0xbfb13f6b	-1.3847479
53	0xbe975811	-0.29559377
54	0xbf4f2b3b	-0.8092534
55	0xbfed8569	-1.8556339
56	0xbfd97014	-1.6987329
57	0xbf1b08e1	-0.60560423
58	0x3d040d48	0.03223923
59	0xbeeeae77	-0.4661748
60	0x4033ecec	2.8113356
61	0x3eb79c80	0.35861588
62	0x3f71108b	0.9416587
63	0xbc7de7d0	-0.015497163
64	0x3f2bb440	0.67071915
65	0xc03699c9	-2.8531363
66	0x3d112f42	0.03544546
67	0xbf4fe233	-0.8120453
68	0xbf0c49c6	-0.5480007
69	0xbf38f2ef	-0.7224569
70	0x3f1e85ff	0.6192321
71	0x3f19a65d	0.60019475
72	0x3f4ec7b2	0.8077346
73	0x3f8075d3	1.0035957
74	0xbf57426e	-0.8408574
75	0xbf43056a	-0.76180136
76	0x3e7dae58	0.24773538
77	0x3f9a78e9	1.2068149
78	0x3e99b622	0.3002177
79	0x3bc7ade2	0.0060937265

conv.weight f4 [128, 16, 15]
0	0xbd1e7d70	-0.038693845
1	0x3d8f73cd	0.07004509
2	0xbe04be08	-0.12963116
3	0x3d1bb819	0.038017366
4	0xbcece88c	-0.02891948
5	0x3d7b624b	0.061373036
6	0xbda06989	-0.07832629
7	0x3e38e800	0.18057251
8	0xbdb41b3f	-0.08794259
9	0x3df5c63e	0.12000702
10	0xbcbc12bb	-0.02295815
11	0xbd965f4e	-0.07342397
12	0xbda5fe9c	-0.081052035
13	0xbdc08d98	-0.09402007
14	0xbd9a50c4	-0.07534936
15	0x3d078637	0.03308698
16	0x3d29d83d	0.041465987
17	0xbde8886c	-0.113541454
18	0x3da6a284	0.08136466
19	0xbd92aad9	-0.07161493
20	0x3b0bc782	0.0021328633
21	0xbd0909af	-0.0334565
22	0x3db1a7fb	0.08674618
23	0xbce3e843	-0.027820712
24	0xbce9d4ae	-0.028543796
25	0xbda0303e	-0.078217015
26	0x3bfc3149	0.007696305
27	0x3d9dee48	0.07711464
28	0x3de65739	0.11247105
29	0x3d9297f2	0.071578875
30	0x3d0b4d6d	0.034009386
31	0xbe9fe3d5	-0.3122851
32	0xbda8167f	-0.08207416
33	0xbe5f09ae	-0.21781036
34	0xbb964c28	-0.0045867153
35	0xbcfc1279	-0.030770527
36	0xbcff6244	-0.031174786
37	0xbe5d67f4	-0.21621686
38	0xbd0b2910	-0.033974707
39	0xbe91451c	-0.2837304
40	0xbd5bcda6	-0.05366292
41	0xbe0d71ff	-0.13813017
42	0xbcab5ee9	-0.02091928
43	0x3dd2be2c	0.10290179
44	0x3cd7cb8d	0.026342178
45	0x3e09c1b2	0.13452795
46	0x3b8ccceb	0.004296889
47	0x3e543164	0.20721966
48	0x3d0f8ec2	0.035048254
49	0x3bb46243	0.005504878
50	0x3d175d0c	0.03695397
51	0x3db6bdd1	0.08922923
52	0x3b52b98e	0.0032154056
53	0x3e1f6050	0.15564084
54	0x3d38225b	0.04495464
55	0x3d318b74	0.043345883
56	0x3da6386a	0.08116229
57	0x3c1f148f	0.009709491
58	0x3dd43c11	0.10363019
59	0x3d2b675d	0.04184662
60	0x3c1aec70	0.009455785
61	0xbbc4269a	-0.005986047
62	0x3d570668	0.052496344
63	0xbbb844a6	-0.005623418
64	0x3d650564	0.055913344
65	0xbcec227c	-0.028825037
66	0x3ccd58f0	0.025066823
67	0xbd13c518	-0.036076635
68	0x3c86c278	0.016450152
69	0xbcb2cfdf	-0.021827636
70	0xbc93d8b9	-0.018047677
71	0xbce6dfde	-0.02818292
72	0xbc8ba98c	-0.01704862
73	0x3b63901d	0.003472335
74	0x3d55d5b5	0.05220576
75	0x3b0c934d	0.0021450103
76	0xbdeb9b76	-0.11504261
77	0xbd5e0365	-0.054202456
78	0xbdf739a3	-0.1207154
79	0xbd92353a	-0.071390584
80	0xbdfa815b	-0.12231704
81	0xb90b7158	-0.00013298297
82	0xbde2de97	-0.11077612
83	0x3c320b35	0.01086693
84	0xbe59f0ad	-0.21283217
85	0x3c1edf22	0.009696754
86	0xbd19d29e	-0.037554376
87	0x3d53f777	0.051749673
88	0x3dbce987	0.09224229
89	0x3d9e98d1	0.07743991
90	0x3d07f5aa	0.033193268
91	0xbcea9ef6	-0.028640252
92	0x3e75767b	0.23970978
93	0xbc95fbfd	-0.018308634
94	0x3df68042	0.12036182
95	0x3dfb669f	0.12275433
96	0x3d7a9c07	0.061183956
97	0x3c836aaf	0.016042082
98	0x3e0496a4	0.1294809
99	0x3da25d66	0.079279706
100	0x3e3bd405	0.18342598
101	0x3de0a0a5	0.109681405
102	0xbd2825d7	-0.041051712
103	0x3b4a82b1	0.0030900652
104	0x3aca2119	0.0015421241
105	0x3d2f7ae7	0.04284182
106	0xbe260603	-0.16213231
107	0x3d9a6e92	0.07540621
108	0xbd8e690e	-0.06953631
109	0x3d89fbd9	0.06737489
110	0x3db90c15	0.090355076
111	0x3d3ab765	0.045585055
112	0xbd79dc3e	-0.061001055
113	0x3db8e5fe	0.090282425
114	0x3c92f4da	0.01793902
115	0x3cf8c5df	0.03036779
116	0xbe0b5702	-0.1360741
117	0xbcaeab6d	-0.021321977
118	0xbd7a6634	-0.061132625
119	0xbcc03d69	-0.023466783
120	0x3d2aa8fe	0.04166507
121	0xbe2361ab	-0.15955226
122	0xbdab336b	-0.083594166
123	0xbd823f64	-0.06359747
124	0x3c79b1d3	0.0152401505
125	0x3d074867	0.033028033
126	0xb91175ac	-0.00013872114
127	0xbcfcd994	-0.030865468
128	0x3d1bed08	0.038067847
129	0x3b699b3c	0.0035645505
130	0xbb45ce85	-0.003018291
131	0xbe291bd4	-0.16514522
132	0xbda9f5c7	-0.082988314
133	0xbda1eef6	-0.07906906
134	0x3cfea49e	0.031084355
135	0xbd7d1fe9	-0.06179801
136	0xbdbf1d51	-0.093317635
137	0x3d43adf4	0.047773317
138	0xbdc0c620	-0.09412789
139	0x3de0e6b8	0.10981506
140	0xbc4bead3	-0.012446123
141	0x3d39db43	0.04537512
142	0x3cbd9577	0.02314256
143	0x3d7de5bc	0.06198667
144	0x3dd364bc	0.10321948
145	0xbcd8c11d	-0.026459271
146	0xbdc14c22	-0.09438349
147	0xbdd980bb	-0.106202565
148	0xbe118f55	-0.14214833
149	0xbd02fd4c	-0.031979844
150	0xbc590b0e	-0.013247265
151	0x3e43abaa	0.19108453
152	0xbdc66fd7	-0.096893005
153	0x3e272e65	0.16326292
154	0xbcd73043	-0.02626813
155	0xbcb6e9f2	-0.02232835
156	0x3d14fac0	0.036371946
157	0x3e2c6118	0.16833913
158	0xbc5226db	-0.012826647
159	0x3d90bcce	0.07067262
160	0xbd89989b	-0.0671856
161	0x3d954cd6	0.07290046
162	0x3dc39656	0.09550159
163	0xbcb2cf19	-0.021827267
164	0xbd21a65e	-0.0394653
165	0x3d9d0edf	0.07668852
166	0x3d8f17e9	0.069869824
167	0x3e0105a2	0.12599805
168	0x3dad8c5d	0.08474038
169	0x3d874479	0.06604857
170	0x3d56f044	0.05247523
171	0x3ded67aa	0.11592038
172	0xbb1d067d	-0.0023960166
173	0x3daddda6	0.08489542
174	0xbc393ab6	-0.011305502
175	0x3dbfef1c	0.09371778
176	0x3e37dcb5	0.17955287
177	0xbb4f0b3f	-0.0031592397
178	0x3e0105b8	0.12599838
179	0x3c946946	0.018116605
180	0xbe257241	-0.16156866
181	0x3e10462f	0.14089273
182	0xbe131c18	-0.14366186
183	0x3dbb0265	0.09131316
184	0xbdcf5d15	-0.10125176
185	0xbd93e83a	-0.07222028
186	0xbde99532	-0.1140541
187	0x3df42895	0.11921803
188	0xbe71dc64	-0.23619229
189	0x3d990f47	0.07473617
190	0xbdc3663e	-0.095409855
191	0x3d2e1765	0.04250278
192	0x3df30ee4	0.118680745
193	0x3b1ee8b6	0.0024247593
194	0xbe0de3db	-0.13856451
195	0xbcee4e04	-0.029089935
196	0x3c995fde	0.01872247
197	0x3d891c7a	0.066948846
198	0x3c74bc2f	0.014937445
199	0xbd13dc97	-0.036099043
200	0xbd4f9d6c	-0.05068724
201	0xbcf6c9d5	-0.030125538
202	0xbd71e181	-0.059052948
203	0x3c8413d7	0.016122742
204	0x3d1d1574	0.038350537
205	0xbc5eb244	-0.0135923065
206	0x3d87a062	0.066223875
207	0x3ca11a53	0.019665873
208	0xbd7313d1	-0.05934507
209	0xbdbd44da	-0.09241648
210	0xbd59d44d	-0.05318098
211	0x3d2deeb4	0.042463973
212	0x3cf46ee6	0.029838037
213	0xbd99400d	-0.0748292
214	0xba7de4a9	-0.0009685257
215	0xbdc76cf1	-0.09737576
216	0x3cc32653	0.023821985
217	0x3cab0899	0.020878123
218	0x3c693444	0.0142336525
219	0xbd531e1e	-0.051542394
220	0x3d5657cd	0.052329827
221	0x3cbde8f1	0.023182364
222	0x3bf3109d	0.007417752
223	0xbbb52693	-0.00552828
224	0xbc9e3e77	-0.019316895
225	0x3cc30f04	0.023810871
226	0x3c438fb1	0.011936114
227	0x3cb895cb	0.022532364
228	0xbd68a5ee	-0.056798868
229	0xbce877c4	-0.028377421
230	0xbcf5de4a	-0.030013222
231	0x3d312e56	0.04325708
232	0xbda5e144	-0.08099607
233	0x3d037ed0	0.03210336
234	0xbd85f2dc	-0.065404624
235	0x3db93a9d	0.09044383
236	0x3d6392c0	0.055559874
237	0x3cad3aa6	0.02114613
238	0x3ca69c8a	0.020338316
239	0x3cc717b5	0.024303297
240	0x3dcfc192	0.101443425
241	0x3deeb7ae	0.11656128
242	0x3d52d45b	0.05147205
243	0x3d8373ba	0.064185575
244	0x3c849563	0.016184514
245	0xbdba9727	-0.09110861
246	0x3dd9299f	0.10603642
247	0x3dedc465	0.11609725
248	0x3e681596	0.22664484
249	0xbd003266	-0.031298064
250	0xbcfa4667	-0.030551149
251	0xbd8c9f51	-0.06866325
252	0x3c85c75c	0.016330414
253	0x3c5efb42	0.013609709
254	0x3e276ba9	0.16349663
255	0xbd81d0e4	-0.06338671

conv.bias f4 [128]
0	0xbdb9b367	-0.090674214
1	0xbdd49e6e	-0.103817806
2	0xbd21ef82	-0.039535053
3	0xbdc972f6	-0.0983638
4	0xbd00a752	-0.03140957
5	0xbdd64280	-0.104619026
6	0xbc4fbb23	-0.012678894
7	0xbd5c1a5d	-0.05373608
8	0xbcf80859	-0.030277418
9	0xbc2b90b7	-0.010471514
10	0xbd471fa3	-0.048614156
11	0x3c3f202d	0.011665386
12	0xbdaae7a6	-0.08344965
13	0xbbf85b8b	-0.007579272
14	0xbd172541	-0.036900762
15	0x3c4e4e3d	0.012591896
16	0xbc7ebc46	-0.015547818
17	0xbd06487e	-0.032783978
18	0xbda3c524	-0.07996586
19	0xbd806a38	-0.062702596
20	0x3bed1634	0.007235313
21	0xbdcd6bfb	-0.10030361
22	0xbc5d6a32	-0.0135140885
23	0xbd8c0ea8	-0.06838733
24	0xbd84785f	-0.064682715
25	0xbd151591	-0.03639752
26	0xbde0d2cf	-0.109777085
27	0xbd28bd8f	-0.041196402
28	0xbc54e7f4	-0.012994755
29	0xbd548cce	-0.051892094
30	0xba1c3a08	-0.0005959575
31	0xbe116c00	-0.14201355
32	0xbde88307	-0.113531165
33	0xbde66caf	-0.112511985
34	0xbddd4f0a	-0.10806091
35	0xbc45eaa8	-0.012079872
36	0xbd7ba367	-0.06143513
37	0xbd6771be	-0.056504957
38	0xbdf5820f	-0.11987697
39	0xbd8305f1	-0.063976176
40	0xbd9c19e1	-0.076221235
41	0xbd6d29e2	-0.05790127
42	0xbdcaea18	-0.09907931
43	0xbbb83c47	-0.00562242
44	0xbda9df32	-0.08294524
45	0xbd1b244a	-0.037876405
46	0xbdf07e7e	-0.117428765
47	0xbc917706	-0.01775695
48	0xbdd6fdf3	-0.10497656
49	0xbc98cfe2	-0.018653814
50	0xbd7eccad	-0.062206913
51	0xbd8921d5	-0.06695906
52	0xbdc326ab	-0.0952886
53	0xbda25f6f	-0.07928359
54	0xbd96fd9a	-0.073725894
55	0xbd15154f	-0.036397275
56	0xbde7e8c4	-0.113236934
57	0x3bd36729	0.0064515066
58	0xbc7cf3e3	-0.0154390065
59	0xbd3b8977	-0.045785394
60	0xbddae33a	-0.10687871
61	0xbd8cc0e6	-0.0687273
62	0xbddbb8ce	-0.10728608
63	0xbd844a8e	-0.06459533
64	0xbd3902ea	-0.045168795
65	0xbd8cb84b	-0.068710886
66	0xbc11c627	-0.008897341
67	0xbd8fa2ac	-0.07013449
68	0xbd9e9c30	-0.07744634
69	0xbdf7ad81	-0.1209364
70	0xbdc79bde	-0.09746526
71	0xbdc30b4f	-0.09523641
72	0xbd0fc5ad	-0.035100628
73	0x3c122e99	0.008922243
74	0xbdc04e4b	-0.09389933
75	0xbca0945e	-0.019601997
76	0xbd0a2b63	-0.033732783
77	0xbd8ec4b9	-0.069711156
78	0xbd53467a	-0.051580884
79	0xbcc69590	-0.024241239
80	0xbb9c2a3a	-0.004765776
81	0xbda848b5	-0.08216993
82	0xbc6a946e	-0.014317615
83	0xbde5325b	-0.11191245
84	0x3c94e4c8	0.018175498
85	0xbd164614	-0.036687925
86	0xbd7a742b	-0.061145943
87	0xbe04a04f	-0.12951778
88	0xbcfbd75e	-0.030742344
89	0x3b6ffcc1	0.003661916
90	0x3c28b9ba	0.010298187
91	0xbd7bfb3a	-0.061518885
92	0xbd8c56f5	-0.06852523
93	0xbd8f042d	-0.06983218
94	0xbd9436ce	-0.07237016
95	0x3c124fc3	0.0089301495
96	0xbdae47b1	-0.08509768
97	0xbe0c77aa	-0.13717523
98	0xbddecf78	-0.10879415
99	0xbd9f2597	-0.077708416
100	0xbd2392e2	-0.039935
101	0xbd9df175	-0.0771207
102	0xbd95da13	-0.07316985
103	0xbdbefd81	-0.09325696
104	0xbdb4c22b	-0.08826097
105	0xbd00006c	-0.031250402
106	0xbd885ccb	-0.06658324
107	0xbdf26723	-0.11836078
108	0xbc69ec45	-0.014277522
109	0xbdda22e7	-0.10651188
110	0xbcc129bb	-0.023579469
111	0xbe01110d	-0.1260416
112	0x3a8a30ac	0.001054307
113	0xbd62b956	-0.05535253
114	0xbdae23e5	-0.0850294
115	0x3b87825a	0.004135412
116	0xbd25d982	-0.040490635
117	0xbdbb1214	-0.091343075
118	0xbd86f027	-0.06588774
119	0xbd8202bc	-0.06348178
120	0xbcc4d53b	-0.024027457
121	0xbd7689b0	-0.060189903
122	0xbd0b2ca3	-0.033978116
123	0xbda62450	-0.08112395
124	0xbd7f6521	-0.062352303
125	0xbd6d3f93	-0.057921957
126	0xbcbb7ef3	-0.022887683
127	0xbde79abe	-0.113088116

fc1.weight f4 [64, 128]
0	0xbde7b80b	-0.113144
1	0xbe1324b9	-0.14369477
2	0x3da175ee	0.078838214
3	0x3e0f6074	0.14001638
4	0xbdbeb98a	-0.093127325
5	0xbcaa4676	-0.020785552
6	0xbda0df40	-0.078550816
7	0xbe225226	-0.1585165
8	0x3d4c697c	0.049905285
9	0x3dd34309	0.1031552
10	0x3d39c7bd	0.0453565
11	0x3e03d614	0.12874633
12	0xbe15f54c	-0.14644355
13	0xbd40d266	-0.04707565
14	0x3dc9e48e	0.098580465
15	0x3dfa76d7	0.12229698
16	0x3df1a9f0	0.11799991
17	0x3dd91555	0.10599772
18	0xbe083b28	-0.13303816
19	0x3ddc38d1	0.10753024
20	0x3d7e767c	0.062124714
21	0x3dec397a	0.115344
22	0xbd86c7c3	-0.0658107
23	0xbde9ffa0	-0.1142571
24	0xbde94fce	-0.11392175
25	0x3d205cd7	0.03915104
26	0x3dbdc0a7	0.09265261
27	0xbde81404	-0.11331943
28	0xbdedc576	-0.11609928
29	0xbcbd3c10	-0.02309993
30	0x3d96da7a	0.0736589
31	0xbbbbf20e	-0.0057356423
32	0xbde017d8	-0.10942048
33	0xbcd55027	-0.026039196
34	0xbc9ef62d	-0.019404495
35	0xbe0e0c31	-0.13871838
36	0x3bf0d2c2	0.007349343
37	0xbe1bab3a	-0.15202036
38	0x3e1d141a	0.153397
39	0xbc671d6e	-0.014106138
40	0x3dcab744	0.098982364
41	0x3e0ea377	0.13929544
42	0x3c780a9c	0.015139248
43	0x3d2a8c87	0.041637924
44	0xbd396b71	-0.04526848
45	0x3dbcadfa	0.09212871
46	0x3b8f8d74	0.004380876
47	0xbdc3a889	-0.0955363
48	0xbe135aa7	-0.1439005
49	0x3d80c9a1	0.06288458
50	0x3ddf0f68	0.108916104
51	0x3d79aded	0.060956884
52	0xbc322b32	-0.010874556
53	0x3e2a8d2f	0.1665542
54	0xbd3c596a	-0.04598371
55	0x3d0afa31	0.033930007
56	0xbde81fa2	-0.113341585
57	0x3d0967b9	0.033546183
58	0xbde534d8	-0.1119172
59	0xbd0a883f	-0.03382134
60	0xbe1bd767	-0.15218888
61	0x3b937bed	0.004500857
62	0xbdadd0cf	-0.08487093
63	0x3d8e28c0	0.06941366
64	0x3e24c05b	0.16089003
65	0x3db77a15	0.08958832
66	0x3d0bfab8	0.03417465
67	0x3d918416	0.071052715
68	0xbdca6c8c	-0.09883985
69	0xbd89c6cc	-0.067273706
70	0xbd95602e	-0.072937354
71	0x3d7759db	0.060388427
72	0xbdee204b	-0.11627253
73	0x3d5bc80a	0.05365757
74	0xbdb98bd3	-0.090598725
75	0xbe034ca8	-0.12822211
76	0x3e05baa8	0.13059485
77	0xbe16ed79	-0.14739026
78	0xbd9f9b0d	-0.077932455
79	0x3dc21e8f	0.09478485
80	0xbdf78964	-0.12086752
81	0x3db97a44	0.090565234
82	0xbda43f74	-0.08019915
83	0x3ddfce0f	0.109279744
84	0x3de92635	0.113842405
85	0x3d7b518d	0.06135707
86	0xbc79fada	-0.015257562
87	0xbdf799b1	-0.12089861
88	0x3e11e074	0.14245778
89	0x3de20069	0.110352345
90	0xbe29034b	-0.16505162
91	0x3d75d98c	0.060021922
92	0x3d47d7ff	0.048789974
93	0xbe178d8c	-0.1480009
94	0x3d489dc8	0.048978597
95	0x3cea4f99	0.028602408
96	0x3dc5db31	0.09660948
97	0x3c637fe5	0.013885473
98	0xbd1f3c07	-0.038875606
99	0x3caf7425	0.021417687
100	0x3d91f7c2	0.07127334
101	0x3df55937	0.11979907
102	0xbdf4197c	-0.11918923
103	0x3de9c6b5	0.114148535
104	0x3d5c9158	0.053849548
105	0x3de9cf8e	0.11416541
106	0xbd800f85	-0.0625296
107	0xbc983b14	-0.018582858
108	0x3b226f0d	0.002478543
109	0xbd2551d5	-0.040361244
110	0xbdab5970	-0.08366668
111	0x3dba0e6e	0.090847835
112	0xbe09f277	-0.13471399
113	0xbd8d01c5	-0.06885103
114	0x3e48584e	0.19564936
115	0x3e03efff	0.1288452
116	0x3b1bbeaf	0.002376478
117	0xbe1a0d3f	-0.15044115
118	0xbde1aba4	-0.11019066
119	0xbd49d401	-0.04927445
120	0x3d82bf79	0.06384177
121	0xbd8791af	-0.06619584
122	0xbce8ab64	-0.028402038
123	0xbdb858c6	-0.09001307
124	0x3ded951b	0.11600705
125	0xbdeb7f06	-0.11498837
126	0xbce75880	-0.028240442
127	0x3e23cba7	0.15995656
128	0xbcd31160	-0.025765121
129	0xbaef5fe0	-0.0018262826
130	0xbdb2fc42	-0.087395206
131	0xbd5e3906	-0.0542536
132	0x3bf19137	0.0073720473
133	0x3b07438d	0.0020639629
134	0xbbf6ab4d	-0.007527745
135	0x3cdc83a8	0.026918247
136	0xbda51eb0	-0.08062494
137	0xbcdd4852	-0.027012024
138	0xbd9fb837	-0.07798808
139	0x3d48020f	0.04883009
140	0xbd8bd11b	-0.06826993
141	0x39fdb20a	0.0004838857
142	0x3d812870	0.06306541
143	0x3d4f401c	0.05059825
144	0xbdb712a9	-0.08939106
145	0xbdab8056	-0.083740875
146	0x3d2aa1f7	0.041658368
147	0x3cc8b4be	0.024500247
148	0xbc8f9b2c	-0.017530046
149	0x39b0abc1	0.00033697303
150	0xbd85a18a	-0.06524952
151	0x3d1b19d6	0.037866436
152	0xbd3af213	-0.045641016
153	0x3d8d0a3a	0.06886716
154	0x3c82f6c5	0.01598681
155	0xbd78568a	-0.060629405
156	0xbdb7c76e	-0.08973585
157	0xbda6ed31	-0.081507094
158	0x3d21c0e1	0.039490584
159	0xbd1564b3	-0.036472987
160	0xbda73a04	-0.081653625
161	0xbdbc9869	-0.092087574
162	0xbd8f692b	-0.07002481
163	0xbcf735ff	-0.030177115
164	0xbd018eb0	-0.031630218
165	0x3d720ee3	0.05909623
166	0xbda041a1	-0.07825018
167	0xbdba31cc	-0.09091529
168	0xbc123960	-0.008924812
169	0x3d24dbd3	0.040248703
170	0x3d0905d3	0.03345282
171	0xbdb32034	-0.08746377
172	0x3d88f058	0.06686467
173	0x3c56975c	0.01309761
174	0x3d1f9987	0.038964774
175	0x3d998dc7	0.07497745
176	0xbc7dcd8e	-0.015490903
177	0x3d41058d	0.047124434
178	0xbdb8fdb7	-0.09032767
179	0xbda0d444	-0.078529865
180	0x3cd6fc01	0.026243212
181	0xbd53071e	-0.05152046
182	0xbcbc88a9	-0.023014383
183	0x3d566666	0.05234375
184	0x3da2c002	0.07946779
185	0xbd87395e	-0.06602739
186	0x3c6f69c1	0.014612616
187	0x3d525fa4	0.05136074
188	0xbd313652	-0.043264695
189	0x3d3b4172	0.04571671
190	0x3ba5f000	0.0050640106
191	0x3d8d9cd6	0.0691468
192	0x3ceacde7	0.028662635
193	0x3d83ce4e	0.06435834
194	0x3d7dde41	0.061979536
195	0xbd767630	-0.060171306
196	0xbd4fe7a6	-0.050758027
197	0x3d11a633	0.03555889
198	0x3d89f471	0.067360766
199	0xbd6f3dfd	-0.058408726
200	0x3d1c68fd	0.038186062
201	0x3b768c59	0.0037620275
202	0x3d5697a9	0.05239073
203	0x3d6443fd	0.0557289
204	0x3cf78102	0.030212883
205	0x3d546c46	0.05186107
206	0xbb0a0987	-0.0021062808
207	0x3d840f2a	0.06448205
208	0xbd1a4c6b	-0.037670534
209	0x3c0775b7	0.0082678115
210	0xbd9acf8c	-0.07559118
211	0x39ca6734	0.00038605335
212	0x3bc16faf	0.0059032063
213	0xbd918851	-0.071060784
214	0xbdbcfcf5	-0.09227935
215	0xbd7241bb	-0.059144717
216	0x3d98ab6a	0.0745457
217	0x3d90d8f8	0.070726335
218	0xbd0ebd44	-0.034848467
219	0x3cfca3c9	0.030839818
220	0xbc66c294	-0.014084477
221	0x3d8b5724	0.0680373
222	0xbd96b9b1	-0.073596366
223	0xbd7cca4f	-0.061716374
224	0x3d792a5a	0.060831405
225	0x3d2c4115	0.042054255
226	0x3c61db07	0.01378513
227	0xbdb49c28	-0.08818847
228	0xbd10e857	-0.035377827
229	0x3d8505ae	0.06495224
230	0x3d0c2b53	0.034221005
231	0x3c8a2396	0.016862672
232	0x3d38d11b	0.045121294
233	0x3d08edc8	0.03342989
234	0x3d7f1e4d	0.062284756
235	0xbd825658	-0.06364125
236	0x3d220911	0.039559428
237	0xbb70654b	-0.003668147
238	0xbd86198f	-0.06547844
239	0xbd824708	-0.063612044
240	0xbd2859c5	-0.041101236
241	0xbcfd76cc	-0.030940436
242	0xbc90cddf	-0.017676292
243	0xbd79cd6f	-0.060986932
244	0xbca4464b	-0.02005305
245	0xbc8a2be7	-0.016866637
246	0xbd76c86f	-0.060249742
247	0xbcf03af7	-0.029324992
248	0xbdc8d686	-0.09806542
249	0xbd4ceba7	-0.050029423
250	0xbcfb666a	-0.030688483
251	0xbd0c962a	-0.034322895
252	0x3c49cfbd	0.012317595
253	0xbd85dd1b	-0.06536313
254	0xbda72d9f	-0.081629984
255	0xbda340e4	-0.07971361

fc1.bias f4 [64]
0	0x3d8e5c9b	0.06951257
1	0xbd21b671	-0.03948063
2	0xbdaeb0ca	-0.085298136
3	0xbd5ab742	-0.053397425
4	0x3ceabbfc	0.028654091
5	0x3d5f59cb	0.054528993
6	0x3cfc2c79	0.030782925
7	0xbd4f27b4	-0.050574973
8	0xbd9d0dfd	-0.07668684
9	0x3d676b2e	0.0564987
10	0xbd433bd0	-0.047664464
11	0xbd8b70c5	-0.068086185
12	0x3cfbc147	0.03073181
13	0xbd6bfacd	-0.05761223
14	0xbda4c2e6	-0.080449864
15	0x3d590f37	0.052993026
16	0x3d6ecfac	0.05830352
17	0x3d7ce0d6	0.061737858
18	0xbd9e93e6	-0.07743053
19	0x3c742355	0.014901002
20	0xbd1ed3f0	-0.038776338
21	0x3cb2bb3b	0.021817794
22	0xbd944c41	-0.07241107
23	0xba6fda13	-0.0009149622
24	0xbc825aab	-0.015912374
25	0xbd9a9b22	-0.075491205
26	0xbd8edc34	-0.06975594
27	0xbd9e7613	-0.077373646
28	0xbc65dc04	-0.014029507
29	0x3ce8e516	0.02842955
30	0xbdbeb633	-0.093120955
31	0x3d65967e	0.056051724
32	0xbcbbc872	-0.022922728
33	0x3d6de9ae	0.058084182
34	0xbd9146d4	-0.070935875
35	0xbc240e2e	-0.010013146
36	0x3d45b6b7	0.048269954
37	0x3c601e90	0.013679162
38	0xbcc3b086	-0.023887884
39	0x3d73ace9	0.05949107
40	0xbdab1b6e	-0.08354841
41	0xbd882290	-0.06647217
42	0xbdb98017	-0.09057634
43	0xbcae5443	-0.021280413
44	0x3d4586c7	0.048224237
45	0xbd57fdb3	-0.05273218
46	0x3c83b7e3	0.016078895
47	0xbd9b7bc8	-0.07591969
48	0xbdd15171	-0.10220612
49	0xbd7707b5	-0.060310084
50	0xbc5dc159	-0.013534867
51	0xbccdfddd	-0.025145466
52	0xbd048e69	-0.032362375
53	0x3c3453cd	0.011006308
54	0xbd1577bc	-0.03649114
55	0xbca14e24	-0.01969058
56	0xbd5555a8	-0.05208364
57	0xbc85487f	-0.01626992
58	0x3c50b56a	0.012738565
59	0x3dadad0a	0.0848027
60	0x3d5f0b89	0.05445436
61	0xbd2e7167	-0.042588618
62	0xbdbff97b	-0.093737565
63	0x3a352e94	0.0006911543

fc2.weight f4 [1, 64]
0	0xbe5e4e99	-0.2170967
1	0x3ce5d986	0.028057825
2	0xbd87c0d4	-0.06628576
3	0x3ea411d4	0.32044852
4	0xbd5deb42	-0.054179437
5	0x3b8f9474	0.0043817107
6	0xbe572f19	-0.2101406
7	0x3eb921f4	0.36158717
8	0xbe20f519	-0.15718497
9	0x3ea5fe81	0.32420734
10	0x3c100405	0.008790021
11	0xbd7e26e6	-0.062048815
12	0x3ea6d527	0.32584497
13	0xbb7bc161	-0.0038414823
14	0x3ebde9d4	0.3709246
15	0xbd0dd6c8	-0.03462866
16	0x3c803e66	0.015654754
17	0xbe48181f	-0.19540451
18	0xbc4df6f6	-0.012571087
19	0x3ea64042	0.324709
20	0x3ec3697a	0.3816641
21	0x3d850274	0.064946085
22	0xbdaab929	-0.08336098
23	0xbcf90ac7	-0.030400647
24	0xbde448d6	-0.11146705
25	0xbd6f7a1e	-0.05846607
26	0x3c864117	0.01638846
27	0x3d3b747f	0.045765396
28	0x3ea0951e	0.31363767
29	0xbe50681f	-0.20352219
30	0x3cd4a16f	0.025955884
31	0x3d6ebd7d	0.05828618
32	0x3d6ce728	0.057837635
33	0xbd9665ca	-0.073436335
34	0x3d7c4030	0.06158465
35	0xbe04dc8d	-0.12974758
36	0xbe46859c	-0.19386905
37	0xbbbc5b0a	-0.0057481574
38	0xbc9e62b6	-0.019334178
39	0xbb3b7532	-0.002860379
40	0x3d9a97da	0.07548495
41	0x3d956063	0.07293775
42	0xbdd03ec2	-0.1016822
43	0x3eb3f500	0.35147858
44	0xbbb25f4c	-0.005443489
45	0x3ec9334e	0.39296955
46	0x3eb4445d	0.35208407
47	0xbe3f4166	-0.18677291
48	0xba5cbe86	-0.0008420724
49	0x3ea46388	0.32107186
50	0xbd37cc9b	-0.04487286
51	0xbdad796c	-0.08470425
52	0xbe40d9d4	-0.18833095
53	0x3eb4e6c3	0.35332307
54	0x3ea3db26	0.32003134
55	0x3eb6e8c1	0.35724452
56	0x3da96463	0.082711
57	0x3db08edc	0.08620998
58	0x3da4d152	0.08047737
59	0x3dfcbd76	0.12340824
60	0xbe5f1777	-0.21786295
61	0xbe6c6a86	-0.2308751
62	0x3d1ce784	0.038306728
63	0xbd6950d6	-0.056961857
