Deep Bind Implementation/deepbind_protein_model.pth (torch, 143369 bytes, 5 tensors)

conv.weight f4 [128, 20, 12]
0.012463344 -0.05139062 -0.056462586 0.036134273 0.03164868 0.07361998 -0.006279791 0.05580775
0.019844845 0.001880862 0.054341666 -0.025877219 0.027213652 -0.07179723 0.009955505 0.028967999
-0.034038223 -0.00016951107 -0.023540897 0.054304853 0.04537007 -0.042531233 -0.023605792 -0.04968006
-0.020714886 -0.045652706 -0.020890687 -0.07167905 -0.04063225 0.016008671 -0.06039945 -0.025107877
0.07431841 0.082027376 0.016273485 0.03178872 -0.041976336 -0.04457005 -0.024363289 -0.08403112
0.06614841 0.04914861 -0.037991058 -0.08876929 -0.025458142 -0.032252084 0.035663996 -0.019613918
0.025897974 0.02368325 -0.016033523 -0.036064584 -0.008770083 0.017906446 -0.0076773753 0.03690003
-0.0102601545 -0.039922737 0.07222683 -0.01683297 -0.06910537 0.089785405 -0.027559629 0.052681923
-0.0838684 -0.059336253 -0.054868 -0.014553339 -0.023872264 -0.03129998 -0.0656748 -0.02994435
-0.00518749 0.014693215 -0.029940525 0.025669504 0.052335966 -0.039026953 -0.048442308 -0.027724046
-0.05806466 0.0034148868 0.029520335 -0.011237721 0.053872228 0.043006405 -0.055460162 -0.01250629
-0.05413803 -0.04801889 -0.0044617234 0.026564892 -0.018764004 -0.064603925 -0.043209877 -0.014624751
-0.04882924 0.068017006 -0.016890362 0.02291489 0.08984203 0.01769392 0.044780914 -0.055165067
-0.020064324 0.009422313 -0.057901405 -0.033358954 -0.047999367 -0.010296778 0.049663443 -0.040001605
0.0012702213 0.04696098 -0.0025810122 -0.00226731 -0.018889612 -0.021181518 -0.021475341 -0.021104842
-0.009798222 -0.051384155 -0.017271962 0.017479625 0.014756441 -0.032456942 -0.02401836 -0.05000033
-0.01760358 0.0147923445 0.021403262 0.019719312 0.055625606 -0.0090213055 -0.002389898 -0.06587828
-0.06323098 -0.0016891382 0.026293347 -0.02697448 0.033944838 0.006462479 0.021485588 0.03191837
0.0020393191 0.010221605 -0.011927899 -0.0044920193 -0.022510115 -0.03853419 -0.014686851 -0.024625806
0.009420389 -0.025480364 0.09292096 0.059166964 0.055781934 0.0056567583 -0.079318196 0.045297563
-0.06627867 -0.059145145 -0.013989288 0.01677901 -0.022054464 -0.023212144 -0.020470163 -0.0052730907
-0.055447765 -0.0019501612 0.043216236 0.060411092 -0.027956184 -0.070284896 -0.03746468 0.05167996
-0.03296822 -0.0038044162 -0.031440996 -0.01101762 0.020885918 -0.010917981 0.012203971 0.041470785
-0.033012323 -0.041708246 -0.0074141887 0.02939684 -0.02411814 -0.06280384 0.019804925 0.05964731
-0.07108794 -0.0076489104 -0.059483055 -0.03817159 0.019774826 0.016443677 -0.03739524 -0.06725804
-0.00086650095 0.015126186 -0.019500593 -0.013951561 0.05936566 0.07073049 -0.022421231 -0.00868319
0.061300676 -0.07234373 0.023961721 -0.046134505 -0.03455259 0.007828893 0.033029467 0.038253956
0.021009797 0.018463314 -0.03323869 -0.061673973 -0.0050692437 -0.034371488 -0.032234352 -0.027130082
0.0070208414 0.009094951 0.02987376 0.035136294 -0.038446594 -0.037855413 -0.009904444 0.038076732
0.052801035 0.043061525 0.03972972 -0.0678374 -0.01974564 -0.056380246 -0.045030057 0.014128228
-0.024629092 -0.052090015 0.0034825879 0.006729557 0.010646464 -0.03691934 -0.0795098 0.023725014
-0.060706306 0.016260665 0.040749013 -0.054445043 0.020319823 -0.03839712 -0.05782925 0.03288871
00000000: 0e33 4c3c f97e 52bd 5045 67bd 8801 143d
00000010: 0ca2 013d 12c6 963d b4c6 cdbb ab96 643d
00000020: a891 a23c 4287 f63a 5e95 5e3d 76fc d3bc
00000030: 2aef de3c 6d0a 93bd 6a1c 233c 4c4e ed3c
00000040: aa6b 0bbd c8be 31b9 d7d8 c0bc c46e 5e3d
00000050: f7d5 393d 3b35 2ebd ef60 c1bc 527d 4bbd
00000060: 44b2 a9bc 55fe 3abd f222 abbc 77cc 92bd
00000070: 016e 26bd 9e24 833c 6a65 77bd 09af cdbc
00000080: 4034 983d f8fd a73d f94f 853c e434 023d
00000090: 61ef 2bbd 168f 36bd 8595 c7bc 8218 acbd
000000a0: d178 873d 0e50 493d 839c 1bbd accc b5bd
000000b0: 988d d0bc c31a 04bd 6914 123d 5ead a0bc
000000c0: fd27 d43c 6003 c23c bc58 83bc 75b8 13bd
000000d0: 65b0 0fbc 8ab0 923c 7e92 fbbb 7c24 173d
000000e0: 351a 28bc 0686 23bd a9eb 933d 4ce5 89bc
000000f0: 1e87 8dbd 69e1 b73d bbc4 e1bc 00c9 573d
00000100: 32c3 abbd 920a 73bd 45bd 60bd 2171 6ebc
00000110: c48f c3bc 6834 00bd 8280 86bd da4d f5bc
00000120: d2fb a9bb cfbb 703c d545 f5bc da48 d23c
00000130: 3d5e 563d bada 1fbd 716b 46bd 8a1d e3bc
00000140: 35d5 6dbd 4bcc 5f3b a1d4 f13c 6b1e 38bc
00000150: 20a9 5c3d 7c27 303d 322a 63bd 2fe7 4cbc
00000160: d7bf 5dbd 75af 44bd a633 92bb 9e9e d93c
00000170: f8b6 99bc 104f 84bd d7fc 30bd a79c 6fbc
00000180: 2b01 48bd 804c 8b3d a85d 8abc 02b8 bb3c
00000190: 19ff b73d d7f2 903c 316c 373d c4f4 61bd
000001a0: f05d a4bc 0c60 1a3c 062a 6dbd 66a3 08bd
000001b0: fc9a 44bd d1b3 28bc e56b 4b3d b9d8 23bd
000001c0: 8e7d a63a 285a 403d 3326 29bb 2697 14bb
000001d0: 63be 9abc dd84 adbc 0eed afbc 10e4 acbc
000001e0: b988 20bc 3178 52bd ee7d 8dbc 6e31 8f3c
000001f0: 00c5 713c 92f1 04bd 27c2 c4bc 25cd 4cbd
00000200: 6235 90bc 975b 723c e555 af3c 658a a13c
00000210: add7 633d 19ce 13bc d69f 1cbb 31eb 86bd
00000220: 3e7f 81bd 1366 ddba 2565 d73c 96f9 dcbc
00000230: be09 0b3d 34c3 d33b 8b02 b03c d6bc 023d
00000240: 19a6 053b 8578 273c 3c6d 43bc ca31 93bb
00000250: 2267 b8bc 07d6 1dbd 1ea1 70bc 0fbc c9bc
00000260: fa57 1a3c 32bc d0bc 584d be3d 0f59 723d
00000270: 997b 643d 545c b93b 9471 a2bd f089 393d
00000280: 1dbd 87bd 2e42 72bd 5433 65bc 2274 893c
00000290: 90ab b4bc 6527 bebc 0bb1 a7bc e4c9 acbb
000002a0: 321d 63bd 8d9c ffba 8203 313d 9f71 773d
000002b0: 5e04 e5bc 87f1 8fbd 9074 19bd 5eae 533d
000002c0: af09 07bd 8353 79bb 46c8 00bd 3f83 34bc
000002d0: f218 ab3c 55e1 32bc 2af3 473c 45dd 293d
000002e0: ee37 07bd 44d6 2abd b9f2 f2bb a4d1 f03c
000002f0: 6893 c5bc 4d9f 80bd f03d a23c bd50 743d
00000300: 8e96 91bd b6a3 fabb 81a4 73bd d059 1cbd
00000310: d1fe a13c e4b4 863c c02b 19bd 95be 89bd
00000320: e525 63ba d3d3 773c b5bf 9fbc 1795 64bc
00000330: 6829 733d 26db 903d bbac b7bc f043 0ebc
00000340: 6b16 7b3d f328 94bd 5f4b c43c 89f7 3cbd
00000350: 0487 0dbd c244 003c e849 073d 2eb0 1c3d
00000360: bd1c ac3c 6040 973c 4b25 08bd d99d 7cbd
00000370: e61b a6bb 1ec9 0cbd 2b08 04bd e83f debc
00000380: 160f e63b fd02 153c d1b9 f43c 13eb 0f3d
00000390: 2d7a 1dbd 470e 1bbd 4046 22bc 59f6 1b3d
000003a0: e645 583d 4861 303d a2bb 223d 56ee 8abd
000003b0: 9cc1 a1bc f9ee 66bd 7071 38bd 157a 673c
000003c0: f3c2 c9bc 575c 55bd 213c 643b 9e83 dc3b
000003d0: 826e 2e3c bc38 17bd 09d6 a2bd f65a c23c
000003e0: 2da7 78bd 1635 853c 70e8 263d c401 5fbd
000003f0: c275 a63c 4c46 1dbd 5dde 6cbd 50b6 063d

conv.bias f4 [128]
-0.0866375 -0.056307837 -0.10110921 -0.099720515 -0.13934414 -0.15166244 -0.17956209 -0.05398702
-0.13469929 -0.11267942 -0.11606385 -0.08320604 -0.1452479 -0.13833076 -0.12534541 -0.15631361
-0.11464086 -0.18626449 -0.20221461 -0.11904221 -0.14375791 -0.14682867 -0.0695657 -0.14657588
-0.19235493 -0.10414067 -0.06631905 -0.089107476 -0.076269105 -0.12744242 -0.15300785 -0.10486454
-0.15392974 -0.02007658 -0.08847213 -0.08450018 -0.11383723 -0.11481963 -0.20114599 -0.12711671
-0.10530548 -0.07957936 -0.150128 -0.11534168 -0.08962396 -0.029374909 -0.12686908 -0.09911473
-0.12202292 -0.13291359 -0.10067953 -0.14608444 -0.21902435 -0.108732216 -0.060045376 -0.07378521
-0.07229289 -0.084826685 -0.10635958 -0.06100896 -0.12252492 -0.14456342 -0.12617142 -0.07522036
-0.20999661 -0.12221851 -0.10229022 -0.13790043 -0.18325213 -0.08251724 -0.14537883 -0.11098751
-0.103920154 -0.17234133 -0.26614287 -0.043941345 -0.08724544 -0.13248213 -0.04814566 -0.062188476
-0.1572386 -0.11787913 -0.12289179 -0.11083057 -0.084447876 -0.15949263 -0.07425222 -0.08197757
-0.11492878 -0.10077837 -0.08615102 -0.15403949 -0.10865025 -0.12054965 -0.107817024 -0.12608907
-0.059428226 -0.07327623 -0.07767837 -0.058058444 -0.16983157 -0.09728458 -0.1439384 -0.14771844
-0.15515693 -0.11855085 -0.12162241 -0.14953257 -0.06060783 -0.20687595 -0.12561467 -0.14282325
-0.13310274 -0.17100412 -0.081586055 -0.054913994 -0.06440625 -0.21666762 -0.08116862 -0.04693048
-0.057818785 -0.21224792 -0.0613282 -0.06541259 -0.11149429 -0.08904833 -0.030613547 -0.06835796
00000000: 006f b1bd 0ca3 66bd 5812 cfbd 453a ccbd
00000010: 3bb0 0ebe 664d 1bbe 20df 37be 7e21 5dbd
00000020: 9cee 09be 78c4 e6bd e2b2 edbd ee67 aabd
00000030: debb 14be 94a6 0dbe 8c5a 00be ad10 20be
00000040: d4c8 eabd 1ebc 3ebe 5911 4fbe 67cc f3bd
00000050: 4635 13be 415a 16be 7678 8ebd fd17 16be
00000060: b1f8 44be b447 d5bd 48d2 87bd fb7d b6bd
00000070: fa32 9cbd 4480 02be 17ae 1cbe 38c3 d6bd
00000080: c29f 1dbe a477 a4bc e030 b5bd 6e0e adbd
00000090: 7e23 e9bd 8e26 ebbd 37f9 4dbe e22a 02be
000000a0: 66aa d7bd 81fa a2bd 28bb 19be 4238 ecbd
000000b0: c48c b7bd a6a3 f0bc f8e9 01be aafc cabd
000000c0: 27e7 f9bd 801a 08be 1231 cebd 2997 15be
000000d0: eb47 60be ffae debd 24f2 75bd b31c 97bd
000000e0: 4b0e 94bd 9db9 adbd 0dd3 d9bd 88e4 79bd
000000f0: 58ee fabd 6f08 14be 1533 01be 220d 9abd
00000100: 5a09 57be b34d fabd 897d d1bd c535 0dbe
00000110: 72a6 3bbe ccfe a8bd 30de 14be 6b4d e3bd
00000120: 17d4 d4bd 3f7a 30be e143 88be d7fb 33bd
00000130: bdad b2bd 65a9 07be 6234 45bd 58b9 7ebd
00000140: 2803 21be 9d6a f1bd b1ae fbbd 23fb e2bd
00000150: 02f3 acbd 0952 23be 8c11 98bd dbe3 a7bd
00000160: c85f ebbd e464 cebd f26f b0bd 87bc 1dbe
00000170: 0684 debd bce2 f6bd 2ccf dcbd 7e1d 01be
00000180: 036b 73bd d911 96bd d615 9fbd b1ce 6dbd
00000190: 54e8 2dbe 233d c7bd 9764 13be 8143 17be
000001a0: 75e1 1ebe caca f2bd 2c15 f9bd 111f 19be
000001b0: ea3f 78bd 4ad7 53be 22a1 00be 4240 12be
000001c0: 164c 08be b41b 2fbe 9716 a7bd 7fed 60bd
000001d0: 6de7 83bd 1ede 5dbe bc3b a6bd 2d3a 40bd
000001e0: 64d3 6cbd 8557 59be 4733 7bbd 09f7 85bd
000001f0: 1e57 e4bd f95e b6bd 43c9 fabc 42ff 8bbd

fc1.weight f4 [32, 128]
0.00688162 0.049402457 -0.019688115 0.03926693 -0.07004674 0.04588293 -0.05747767 -0.051071092
-0.028234247 0.05333072 -0.025412096 -0.041012984 -0.004172234 0.025920536 -0.07015047 -0.028611848
0.016817579 0.035062768 -0.08781599 0.07211128 -0.014575842 0.064663455 0.04549187 -0.031405963
0.027679615 -0.085623235 -0.024604367 0.027190562 0.07533941 -0.035166178 -0.04759651 -0.040763553
-0.080837645 0.026918331 -0.072351 -0.0018109975 0.040438537 0.087620646 0.06873064 -0.049062457
-0.0081033325 0.0028502683 -0.07581573 0.0110032195 -0.0835267 -0.011202009 -0.07738661 0.045986827
-0.003513078 -0.062434305 0.03569398 -0.014416359 0.012663801 0.021483619 -0.06771395 -0.0838823
-0.0748744 -0.010261208 0.07868984 0.009402886 -0.013763351 -0.050685912 0.050722696 0.080945306
-0.019608872 0.06488299 -0.004328248 0.057341434 -0.015852032 -0.0094543025 -0.052578516 0.08761955
0.07130125 0.012067979 -0.067023806 -0.08074306 0.056604266 0.08750524 -0.06826961 -0.04226339
-0.06538111 -0.027285334 -0.059980884 -0.0643898 -0.029295888 0.014375076 0.03804206 -0.005390672
-0.024537487 -0.014635099 -0.02527655 0.059108164 0.0075493054 -0.07578073 0.073193155 -0.045428276
0.01792276 -0.0148753915 0.07611893 -0.04410729 0.042973842 0.010312163 -0.010018886 -0.020529594
-0.016643638 0.046721414 0.04369047 0.08796989 -0.05567081 0.03118046 -0.019338299 -0.08065326
0.05656687 0.01081578 -0.048774593 0.047477666 -0.023637692 0.026353966 0.0529495 0.029050458
-0.060083605 0.06074916 -0.04278466 0.040064476 -0.06672902 -0.030103222 -0.06016554 -0.011169418
0.079867266 -0.0024770554 0.050341714 -0.008555516 -0.05681587 0.05837714 0.040663432 0.05122783
0.07197617 -0.044174936 -0.013393631 -0.07785525 0.0641759 -0.070019245 -0.02251286 0.010266065
-0.061808363 -0.035593554 -0.031215353 0.012074679 -0.039862014 -0.05588754 -0.030918386 -0.028957775
0.03281506 0.067710534 0.024115017 -0.008583785 0.020170163 -0.024492452 -0.03231342 0.0072532217
-0.024763206 -0.06141404 -0.06477679 0.07235776 0.03574035 -0.034055486 0.014960386 0.01807323
-0.04931626 0.06331841 -0.0131434435 -0.08457371 0.041639436 0.06771087 -0.06114816 0.034339115
0.07280378 -0.041530494 0.03533199 0.032556932 -0.06430976 -0.06497234 -0.029627375 -0.07281332
-0.054430194 -0.055606876 -0.03339415 -0.042942543 -0.07230685 0.0767919 -0.06735256 -0.0446578
-0.054166783 -0.08611114 0.06231037 0.0010269544 0.011827412 0.04191038 -0.021750385 0.08885534
0.07677098 0.05982831 -0.062855564 0.039891377 0.077114515 -0.085151315 0.06433899 -0.01009549
0.080631785 -0.050643805 -0.0071583837 0.045266166 -0.08220692 -0.03909694 0.0010079107 0.07663393
-0.0004809154 -0.036385026 0.07110207 -0.07100836 -0.07478753 0.018282894 0.029993376 0.015085967
0.030263837 0.08109142 -0.06661173 -0.029082716 -0.037293497 -0.029568959 -0.035039835 -0.0015623098
0.036818255 -0.02508276 -0.010595712 -0.03174822 0.028744886 -0.07434417 -0.05617834 0.0291836
0.08498766 0.0044289203 -0.067795634 -0.00760156 0.019123321 0.04151892 -0.032849167 0.035580706
0.07369634 0.07659815 -0.0004131871 -0.053774305 -0.06880052 -0.06611403 -0.039287765 0.010579454
00000000: 367f e13b 3b5a 4a3d f848 a1bc 5cd6 203d
00000010: aa74 8fbd bdef 3b3d b56d 6bbd ec2f 51bd
00000020: 824b e7bc 5071 5a3d 072d d0bc 3bfd 27bd
00000030: 3cb7 88bb 4e57 d43c 0dab 8fbd 6563 eabc
00000040: 05c5 893c fa9d 0f3d dfd8 b3bd 14af 933d
00000050: 83cf 6ebc 466e 843d af55 3a3d 8aa3 00bd
00000060: 5cc0 e23c 3c5b afbd 198f c9bc bebe de3c
00000070: 8c4b 9a3d 690a 10bd 8ff4 42bd aff7 26bd
00000080: 358e a5bd d583 dc3c c32c 94bd fe5e edba
00000090: e1a2 253d 7472 b33d a6c2 8c3d b7f5 48bd
000000a0: d7c3 04bc 91cb 3a3b 4745 9bbd d946 343c
000000b0: 0c10 abbd a288 37bc df7c 9ebd af5c 3c3d
000000c0: ab3b 66bb 1dbb 7fbd da33 123d 9832 6cbc
000000d0: d57b 4f3c 6afe af3c 9dad 8abd 7cca abbd
000000e0: c057 99bd a01e 28bc 2428 a13d 900e 1a3c
000000f0: ae7f 61bc 089c 4fbd 9ac2 4f3d a7c6 a53d
00000100: c9a2 a0bc 60e1 843d fad3 8dbb dade 6a3d
00000110: 1fdc 81bc 38e6 1abc 925c 57bd e171 b33d
00000120: 6406 923d c6b8 453c c743 89bd 9e5c a5bd
00000130: e0d9 673d f335 b33d f0d0 8bbd 601c 2dbd
00000140: 88e6 85bd 7e85 dfbc 84ae 75bd cdde 83bd
00000150: eefd efbc 7085 6b3c fed1 1b3d 3ca4 b0bb
00000160: d702 c9bc 0ec8 6fbc c410 cfbc 671b 723d
00000170: 2a60 f73b ed32 9bbd 4be6 953d 0013 3abd
00000180: c1d2 923c eab7 73bc 3ee4 9b3d d9a9 34bd
00000190: 5705 303d 59f4 283c 4126 24bc ae2d a8bc
000001a0: 3d58 88bc f45e 3f3d c7f4 323d 8f29 b43d
000001b0: 1307 64bd 2a6e ff3c 5a6b 9ebc 892d a5bd
000001c0: aab2 673d ab34 313c dec7 47bd f177 423d
000001d0: d5a3 c1bc 46e4 d73c 93e1 583d 3afb ed3c
000001e0: 3a1a 76bd 1cd4 783d f83e 2fbd a61a 243d
000001f0: 39a9 88bd 089b f6bc 2470 76bd efff 36bc
00000200: 7391 a33d 1856 22bb 1d33 4e3d 6f2c 0cbc
00000210: c2b7 68bd de1c 6f3d b38e 263d 46d4 513d
00000220: 3e68 933d c7f0 34bd f670 5bbc 9372 9fbd
00000230: a76e 833d 4066 8fbd e46c b8bc ff32 283c
00000240: c42a 7dbd 8cca 11bd 57b7 ffbc e0d4 453c
00000250: 5a46 23bd 55ea 64bd 8e48 fdbc db38 edbc
00000260: 1669 063d d2ab 8a3d db8c c53c 01a3 0cbc
00000270: e63b a53c 65a4 c8bc 145b 04bd 6fac ed3b
00000280: 35dc cabc 4a8d 7bbd b2a9 84bd 4e30 943d
00000290: 7964 123d c47d 0bbd 681c 753c 4f0e 943c
000002a0: d9ff 49bd 15ad 813d 9957 57bc fb34 adbd
000002b0: 1d8e 2a3d ffab 8a3d 7e76 7abd 2ca7 0c3d
000002c0: 261a 953d e11b 2abd 47b8 103d 6b5a 053d
000002d0: d6b4 83bd 3810 85bd 1cb5 f2bc 261f 95bd
000002e0: 32f2 5ebd 09c4 63bd 4ec8 08bd 85e4 2fbd
000002f0: 9d15 94bd 1245 9d3d 24f0 89bd 19eb 36bd
00000300: fddd 5dbd 0a5b b0bd 2939 7f3d df9a 863a
00000310: c3c7 413c 38aa 2b3d dd2d b2bc caf9 b53d
00000320: 1b3a 9d3d 880e 753d 6bba 80bd 2465 233d
00000330: 37ee 9d3d d063 aebd 29c4 833d 8e67 25bc
00000340: 4722 a53d e16f 4fbd e090 eabb 0469 393d
00000350: 1a5c a8bd 1d24 20bd df1b 843a 40f2 9c3d
00000360: 5f23 fcb9 7708 15bd f69d 913d d56c 91bd
00000370: 342a 99bd 02c6 953c abb4 f53c 222b 773c
00000380: deeb f73c 4213 a63d bb6b 88bd e03e eebc
00000390: 11c1 18bd 9a3a f2bc ee85 0fbd 6bc6 ccba
000003a0: bdce 163d 5c7a cdbc a399 2dbc 6c0a 02bd
000003b0: 657a eb3c c241 98bd 421b 66bd 7212 ef3c
000003c0: 030e ae3d 7a20 913b 70d8 8abd 8216 f9bb
000003d0: 83a8 9c3c be0f 2a3d d98c 06bd 13bd 113d
000003e0: 1bee 963d 7edf 9c3d 09a1 d8b9 7242 5cbd
000003f0: 49e7 8cbd cb66 87bd 35ec 20bd 7255 2d3c

fc1.bias f4 [32]
-0.011633718 0.06317996 -0.023452487 -0.058865193 -0.04570956 0.046265952 -0.03516252 0.07053188
-0.072978884 -0.12874043 -0.014299864 0.027777594 -0.054703787 -0.03292893 -0.14084494 0.013685754
0.0033780036 -0.103751466 0.034086436 0.029378468 0.018519977 -0.023614967 0.08919595 -0.04069186
0.054183915 -0.10800752 0.0631029 -0.07145404 -0.068610676 -0.09436139 -0.020367147 -0.07188524
00000000: 5a9b 3ebc 7f64 813d 6e1f c0bc a11c 71bd
00000010: f339 3bbd 5e81 3d3d 9306 10bd 0573 903d
00000020: f475 95bd 88d4 03be fa49 6abc d68d e33c
00000030: 1411 60bd 7ce0 06bd a839 10be 363a 603c
00000040: 7f61 5d3b a67b d4bd 389e 0b3d 1dab f03c
00000050: 35b7 973c 2d74 c1bc 5eac b63d 82ac 26bd
00000060: f4ef 5d3d 0c33 ddbd 183c 813d 7f56 92bd
00000070: c183 8cbd 8b40 c1bd 01d9 a6bc 9238 93bd

fc2.weight f4 [1, 32]
0.021178123 -0.11255277 -0.5818279 0.017421553 0.7213377 -0.13074066 -0.11417278 -0.79447335
-0.064467624 0.6751834 0.49391618 0.6211723 0.060036726 -0.6954356 0.57992804 -0.67801064
-0.6163554 0.61144304 -0.033514943 -0.74739784 -0.6380237 0.67578256 -0.80736464 0.025492745
-0.6346759 0.6784125 -0.07591153 -0.11857272 0.2903717 0.69025034 -0.17417975 0.682238
00000000: be7d ad3c 1182 e6bd acf2 14bf a5b7 8e3c
00000010: 96a9 383f e1e0 05be 6bd3 e9bd 9b62 4bbf
00000020: 9a07 84bd d2d8 2c3f 95e2 fc3e 2605 1f3f
00000030: 12e9 753d 1108 32bf 2a76 143f 1b92 2dbf
00000040: 78c9 1dbf 8887 1c3f f746 09bd 7755 3fbf
00000050: 8555 23bf 1600 2d3f 73af 4ebf 29d6 d03c
00000060: 1f7a 22bf 71ac 2d3f 8177 9bbd 41d6 f2bd
00000070: 99ab 943e 3fb4 303f 2d5c 32be 26a7 2e3f
